src/v832z5gm/epoch=17-step=107.ckpt (torch, 7111 bytes, 6 tensors)

layers.1.weight f4 [2, 128]
00000000: 54df 3b3c a6e0 eebc c13c 0f3c c66f 743c
00000010: f7c7 693d 07da 383d 25b2 2ebc 8d54 e1bd
00000020: e7d3 8bba 93f0 6dbd d3c8 693c 5b36 6c3c
00000030: 07d2 203b 7430 0c3d d0a8 fbbc ab0c 4d3d
00000040: 9680 a93c cf6f 89bc d9a7 92bd 3934 b63d
00000050: d1ef afbd 71f1 243b 7fc0 1c3d 370f 2e3d
00000060: 871e c6bc e919 b73c 99de 80bb ea98 51bd
00000070: 77e4 2ebd 5b11 1cbd b1b5 e9bd 7a21 9dbd
00000080: ef0b 60bc 93de a73d e46f 9bbc f00e bcbc
00000090: 42aa 953d 4fb7 83bd 3038 653b bddd a0bd
000000a0: 820c 2cbd 0b62 f0bd 19b1 0b3b b4d5 9f3d
000000b0: 17e1 6e3c cfd4 1f3d 51f7 193d 8d5f 9fba
000000c0: b279 1f3d c603 2e3d 795f 953d 5bf7 373d
000000d0: 9610 683d 930b b33d 13e2 3ebd afa1 20bd
000000e0: 54cc 77bd 721b 6a3d 3d5c 813c d461 4d3d
000000f0: ef71 a23d 74d2 62bd 4832 3c3d 3d1b 933d
00000100: 041f b73d 89cb 223c 19bb 1d3d b3f7 5fbd
00000110: 5853 95bd 5708 863d 1e89 6abd d16a 313d
00000120: fd07 67bd 034c 00bc 1386 dc3c 2348 17bd
00000130: 0ad3 413c b646 e8bd 2e05 b0bc d56e 3fbd
00000140: f80d c53d bdd6 1ebd 56f8 c2bd eb3a e63c
00000150: 4f35 8d3d 5931 91bd 4428 1dbd 4617 0a3d
00000160: 4ddc 9abd 4449 11bd efe1 873c 1407 94bd
00000170: 2236 813c dfe3 4d3b c3cf 093c 587f c83d
00000180: 07af 5ebd 15b2 9abd 39a0 b2bd 8b50 87bd
00000190: a797 9ebc 1092 65bd da3e 90bd d0f0 683d
000001a0: ad74 d03d 070a 383c 5324 103d 26f6 333d
000001b0: 583e 67bd a13f 673b bf90 ff3d a5d9 eabc
000001c0: e545 ddbb fc30 17bd b52c 20bd e9b8 2b3c
000001d0: c140 993c e4dd 893d af83 0ebb fa97 653d
000001e0: 8805 a03c b427 bfbb 3df9 87bd 2717 8e3d
000001f0: 5b45 e63c 064e 3cbd 6f41 1cbd e8c2 393d
00000200: 06ee 9dbd 1104 8ebd 12e7 35bd b9d6 043c
00000210: c2f7 62bd 3dc5 d2bd 7766 0e3d ef8b aa3d
00000220: 60a2 5e3d 1263 c4bd 65d4 aa3d 1b3c 79bc
00000230: 041f d9bd a9b1 ca3c a13a c13d 719e df3c
00000240: 612f 813c bbb9 dc3c 7a2f 30bd 51f8 6a3d
00000250: 5f52 b23d 7c0a 7fbd 6493 d7bc ffda c23b
00000260: 1cfd 70bd 9850 1b39 2532 f5bc db2d 97bd
00000270: 9b0e 93bd eac4 3ebb 7f16 ed3d 2fed 503d
00000280: 3152 c7bc 2f40 183d b88a fa3c 3dd8 d4bd
00000290: f417 f6bc 786e b23d e0b3 99bd 4f34 d53c
000002a0: 0603 f4bc 4c2b 0cbd ebde 6fbc 598a 0ebd
000002b0: 5838 763d 8368 45bc e40d a3bd 4631 8f3b
000002c0: 0901 dabd 5b34 fabc 50dc 223d 98be 553d
000002d0: 1e81 41bd d726 64bd 9395 773d c6ba 723d
000002e0: 33d9 25bd 7692 6abd df82 18bd 2f5f 833d
000002f0: 3337 363d b976 9d3c 76e6 593c 008d 7dbd
00000300: 9399 3d3d 1b8b a63c 7c0a 1abd 31ad 90bd
00000310: 2714 8f3d 9ce1 8fbd 0ecb 4e3c 4e6f cf3d
00000320: 90ef 75bd a38d 9ebc f32f 89bd 7ac7 bdbc
00000330: 3c9a 5bbc e2cc af3d e0be 113d 8915 1abd
00000340: fb43 03bd 5627 2cbc 7866 83bd f37c fcbc
00000350: b16a c8bc 9f21 5dbc 1509 14bd a559 f83c
00000360: 6ec9 093d 69b5 1ebd 6113 6fba bd34 bc3d
00000370: 09ac 313d 2f64 67bd 4c3c 013e b26e 553c
00000380: 94c2 b5bc 7b99 9fbc ac8c 2cbc 29fb ea3d
00000390: 871f 083d 8a14 6fbb 1c2f 3dbc 0767 b9ba
000003a0: d8a3 e7bc cfff 403c 7c20 cfbc e6c0 a13c
000003b0: cd28 62bd ac9b a2bc 9462 b1bd b23f a0bd
000003c0: ce11 98bd 7a64 893d 2090 b9bd 70c1 e3bd
000003d0: 1e88 333d c5cd 303d a762 3a3d 2a50 f93c
000003e0: 4c09 3c3c e7c0 28bc 47d7 90bd 15b6 0ebc
000003f0: 7367 553d c02d cdbd 56d1 7abd 5b38 843d
0.01146682 -0.029159855 0.008742512 0.014919227 0.057075467 0.045129802 -0.01066259 -0.11002455
-0.001066801 -0.058090758 0.014269072 0.014417256 0.0024539249 0.034225896 -0.030720145 0.05006091
0.020691197 -0.016776947 -0.07160921 0.088966794 -0.08590663 0.0025168324 0.038269516 0.04249498
-0.024184478 0.022351222 -0.0039327857 -0.05117122 -0.04269835 -0.03810249 -0.11411608 -0.07672401
-0.01367472 0.081967495 -0.018974252 -0.022956342 0.07307865 -0.06431448 0.0034976117 -0.07854793
-0.042004116 -0.1173745 0.0021315275 0.078044325 0.014580033 0.03902131 0.037589375 -0.0012159214
0.038934417 0.042484067 0.072936006 0.04491363 0.056656443 0.08742442 -0.04660232 -0.039216693
-0.060497597 0.05715508 0.015791053 0.050142124 0.07931887 -0.055376485 0.04594639 0.0718293
0.08941463 0.009936222 0.03850851 -0.054679584 -0.07291287 0.065445594 -0.05725967 0.04331476
-0.056404103 -0.007830623 0.0269194 -0.03693403 0.011830101 -0.11341612 -0.021486845 -0.046736557
0.09621805 -0.03877901 -0.095200226 0.028104266 0.068949334 -0.070894904 -0.03836848 0.0337136
-0.0756155 -0.035470262 0.016587226 -0.072279125 0.015772883 0.003141634 0.008411351 0.09789914
-0.054366138 -0.07553498 -0.08721966 -0.06607159 -0.019359423 -0.0560475 -0.07043238 0.05687028
0.10178504 0.011232859 0.03519089 0.043935917 -0.05645594 0.0035285729 0.1247878 -0.028668234
-0.006752717 -0.03691195 -0.039105136 0.010481098 0.018707635 0.067317754 -0.002174597 0.05605314
0.019533888 -0.0058335904 -0.06639335 0.0693801 0.028109243 -0.045972846 -0.03814834 0.045351893
-0.07711415 -0.06934369 -0.04440982 0.0081078345 -0.05541206 -0.102915265 0.034765687 0.083274715
0.05435407 -0.09589209 0.08341292 -0.015212084 -0.10601619 0.024742918 0.09435011 0.02729723
0.015769662 0.026944032 -0.043014027 0.05736572 0.08707117 -0.062265858 -0.026315399 0.0059465165
-0.058835134 0.00014811975 -0.029931137 -0.07381793 -0.0718052 -0.002910907 0.115765564 0.051007446
-0.024331184 0.037170585 0.030583724 -0.10392807 -0.030040719 0.087124765 -0.075050116 0.02602592
-0.029786598 -0.03422098 -0.01464055 -0.034799907 0.060112327 -0.012048843 -0.07961634 0.0043698875
-0.10644729 -0.030542543 0.039760888 0.052183717 -0.047242276 -0.055701103 0.06044538 0.059260152
-0.04049034 -0.057268582 -0.037234183 0.06414639 0.044486236 0.01922165 0.013299575 -0.061902046
0.046289038 0.020330003 -0.037607655 -0.07064284 0.06986266 -0.070254534 0.012621654 0.101286516
-0.060042918 -0.019354647 -0.06698599 -0.023166407 -0.013403472 0.08584 0.035582423 -0.037618194
-0.032047253 -0.010507425 -0.06416029 -0.0308213 -0.024464937 -0.013496785 -0.036141474 0.030316183
0.033639364 -0.038747225 -0.0009120014 0.091897465 0.043376956 -0.056492027 0.12620658 0.01302688
-0.022187509 -0.019482365 -0.010531586 0.11473686 0.03323319 -0.0036480748 -0.011546876 -0.0014145084
-0.028276369 0.0117797395 -0.025284044 0.019745301 -0.055214692 -0.01984962 -0.086613804 -0.07824649
-0.07425271 0.067086175 -0.09060693 -0.1112088 0.043830983 0.043164987 0.04550424 0.030433733
0.011476826 -0.010299898 -0.07072311 -0.008710404 0.05210061 -0.10018492 -0.061234795 0.064560615

layers.1.bias f4 [2]
00000000: e65b db3a 842e 8b3d
0.0016735762 0.067959815

exp_avg f4 [2, 128]
00000000: 5fb1 243b 1412 403c 937d 823c c736 08bc
00000010: 3834 77bc d20b 12bc 8139 97bc 8684 443d
00000020: 6fd3 833c f622 d9bc f812 d6bb 83bb 5aba
00000030: 2740 f2bb 863b a53c 50a1 353d 8f8a 82bc
00000040: 6ddb 4a3b dda7 d0bb f30b e23c 79be b63b
00000050: a12f 3ebb 1c0b 12bb 9417 aebc ec4b 563c
00000060: ef64 0d3c 7719 043c ebcd d8bb ed69 5a39
00000070: 6d43 2abc f8c7 fe3b 9922 173c 974e 523c
00000080: 21a2 c33b 2ef6 19bc 140b 353c 981d 3fbc
00000090: fdea d0bc 9053 0f3d 72f7 aabc ff9b c93c
000000a0: 990f 103b 4dce 043d ebac e83c 9212 05bd
000000b0: 8b3c 6cbb 136d 51bb 2297 c7ba fba0 153c
000000c0: 6793 c9bc 7ada 7abc c8b7 10bd c4e3 b33b
000000d0: cd82 0f3d cc92 d6bc c61f f43c 54e1 183d
000000e0: 7039 4f3d b566 40ba 8f4e 003c 32fa bb3c
000000f0: abf3 f9bb fab5 32bc 8c6e 2ebc 0d00 f83b
00000100: 1aeb bbbb ea78 5dba fb4b 85bc 3251 27bc
00000110: d90c 0f3d f4d4 d8bb 8f28 20bc 64b8 403d
00000120: 5b93 8cbc b51b 1c3d f66f 59bc 2763 5d3d
00000130: f0b4 7e3b ba1d b33c fe85 33bd d8e1 4abc
00000140: 223c 12bc e2d2 cf3c 2e9f 563b 157c 09bc
00000150: 2026 5abc 45c1 d93c c712 c53c 2e65 81bc
00000160: a290 4d3b 6e9c 6e39 196f 87bc 4ffc a03b
00000170: 3513 c43c 384d 81ba 6b5d 223d 93fa 37bd
00000180: 73b3 d1bb 22f8 2e3c 70d0 613c 30f6 863c
00000190: 6e90 69bb b475 a33c 6e24 08bb 86d3 54bc
000001a0: 6bac 55bd fa19 6f3b 28a3 c53b 972f 003c
000001b0: fe57 3cbc 239c c0bb b1dd d9bc c530 01bd
000001c0: 4876 6ebc 21b0 523c 8c00 0abb 0711 9cbc
000001d0: ea13 26bc 3c2a 4a3c 8162 8ebb 76c0 39bb
000001e0: a81b 083d f346 fd3c 1bc2 3bbc 4957 aabb
000001f0: 9363 573c 6884 673c 9dc5 483b 63f8 063c
00000200: 77b1 24bb 0d12 40bc 967d 82bc c536 083c
00000210: 3634 773c d40b 123c 7939 973c 8684 44bd
00000220: 6dd3 83bc f222 d93c f612 d63b 93bb 5a3a
00000230: 2840 f23b 863b a5bc 50a1 35bd 928a 823c
00000240: 72db 4abb dea7 d03b f30b e2bc 7dbe b6bb
00000250: a82f 3e3b 200b 123b 9417 ae3c f04b 56bc
00000260: f364 0dbc 7419 04bc e7cd d83b b76a 5ab9
00000270: 6d43 2a3c edc7 febb 9b22 17bc 964e 52bc
00000280: 25a2 c3bb 2ef6 193c 130b 35bc 961d 3f3c
00000290: fcea d03c 9053 0fbd 71f7 aa3c ff9b c9bc
000002a0: a10f 10bb 4ece 04bd ebac e8bc 9312 053d
000002b0: 923c 6c3b fe6c 513b 2197 c73a f5a0 15bc
000002c0: 6693 c93c 7ada 7a3c cbb7 103d c3e3 b3bb
000002d0: c982 0fbd cc92 d63c c21f f4bc 55e1 18bd
000002e0: 7039 4fbd fa66 403a 8c4e 00bc 33fa bbbc
000002f0: abf3 f93b feb5 323c 8a6e 2e3c 1300 f8bb
00000300: 1eeb bb3b f278 5d3a fa4b 853c 3351 273c
00000310: d90c 0fbd f9d4 d83b 9028 203c 64b8 40bd
00000320: 5c93 8c3c b71b 1cbd f66f 593c 2763 5dbd
00000330: f4b4 7ebb bd1d b3bc fd85 333d d9e1 4a3c
00000340: 263c 123c e1d2 cfbc 399f 56bb 167c 093c
00000350: 1e26 5a3c 47c1 d9bc ca12 c5bc 2c65 813c
00000360: b190 4dbb c89c 6eb9 196f 873c 4efc a0bb
00000370: 3513 c4bc 1f4d 813a 6d5d 22bd 93fa 373d
00000380: 6db3 d13b 28f8 2ebc 72d0 61bc 30f6 86bc
00000390: 7690 693b b475 a3bc 8624 083b 83d3 543c
000003a0: 6bac 553d 0c1a 6fbb 31a3 c5bb 9a2f 00bc
000003b0: fe57 3c3c 1f9c c03b b1dd d93c c730 013d
000003c0: 4e76 6e3c 24b0 52bc 9400 0a3b 0a11 9c3c
000003d0: eb13 263c 3f2a 4abc 8362 8e3b 72c0 393b
000003e0: a91b 08bd f446 fdbc 1ec2 3b3c 4557 aa3b
000003f0: 9663 57bc 6384 67bc 99c5 48bb 5ff8 06bc
0.0025130135 0.01172306 0.01592902 -0.008313841 -0.0150881335 -0.008913951 -0.018460037 0.047977947
0.01609203 -0.026505928 -0.006533023 -0.00083439815 -0.0073929015 0.020169985 0.044343293 -0.01593521
0.0030953542 -0.006367667 0.027593588 0.0055769053 -0.0029020088 -0.0022284454 -0.021251477 0.013079625
0.0086300215 0.008062712 -0.006616344 0.0002082956 -0.010392052 0.007775303 0.009224557 0.01283612
0.005970255 -0.009397073 0.0110500045 -0.011664771 -0.025502676 0.0349918 -0.020869944 0.024610518
0.0021981953 0.032423306 0.028402766 -0.032488413 -0.0036046829 -0.0031955882 -0.0015227536 0.009132619
-0.02460642 -0.015310878 -0.035331517 0.0054897983 0.03503685 -0.026193045 0.029800307 0.037324265
0.050591886 -0.0007339523 0.00783123 0.02294645 -0.0076279244 -0.010907644 -0.010646474 0.0075683654
-0.0057348134 -0.00084484986 -0.016271582 -0.01021223 0.03492436 -0.006617183 -0.009775295 0.04705085
-0.017160108 0.03811236 -0.0132713225 0.054049637 0.0038865171 0.02186476 -0.043828957 -0.012382947
-0.00892547 0.025369111 0.0032748687 -0.0083914 -0.013314754 0.026581416 0.024056805 -0.015795317
0.0031366725 0.00022755723 -0.016532468 0.00491289 0.02393494 -0.0009864932 0.03963987 -0.0449167
-0.006399566 0.010679277 0.0137826055 0.016474813 -0.0035639065 0.019953586 -0.0020773667 -0.012989884
-0.052166384 0.003648399 0.0060314126 0.007823846 -0.011495588 -0.005877988 -0.026594969 -0.03154065
-0.014554568 0.012859375 -0.0021057455 -0.019051088 -0.010136584 0.012339171 -0.0043452387 -0.0028343475
0.0332295 0.03091762 -0.011459853 -0.0051983935 0.013146299 0.014130689 0.0030635365 0.008237931
-0.0025130191 -0.011723054 -0.015929025 0.008313839 0.015088132 0.008913953 0.018460022 -0.047977947
-0.016092027 0.026505921 0.006533022 0.0008343991 0.007392902 -0.020169985 -0.044343293 0.015935216
-0.0030953554 0.0063676676 -0.027593588 -0.005576907 0.0029020105 0.0022284463 0.021251477 -0.013079628
-0.008630025 -0.008062709 0.0066163423 -0.00020829854 0.010392052 -0.007775298 -0.009224559 -0.012836119
-0.005970257 0.009397073 -0.011050004 0.011664769 0.025502674 -0.0349918 0.020869942 -0.024610518
-0.0021981972 -0.03242331 -0.028402766 0.032488417 0.0036046845 0.0031955834 0.0015227535 -0.009132613
0.024606418 0.015310878 0.03533153 -0.005489798 -0.035036836 0.026193045 -0.0298003 -0.03732427
-0.050591886 0.00073395635 -0.007831227 -0.022946453 0.0076279244 0.010907648 0.010646472 -0.007568368
0.0057348153 0.0008448503 0.01627158 0.0102122305 -0.03492436 0.006617185 0.009775296 -0.04705085
0.01716011 -0.03811237 0.0132713225 -0.054049637 -0.003886518 -0.021864766 0.043828953 0.012382948
0.008925473 -0.02536911 -0.0032748713 0.008391401 0.013314752 -0.02658142 -0.02405681 0.015795313
-0.003136676 -0.00022755854 0.016532468 -0.0049128896 -0.02393494 0.0009864903 -0.03963988 0.0449167
0.006399563 -0.010679282 -0.013782607 -0.016474813 0.0035639084 -0.019953586 0.0020773723 0.012989881
0.052166384 -0.003648403 -0.006031417 -0.007823849 0.011495588 0.005877986 0.026594969 0.03154066
0.014554573 -0.012859378 0.0021057473 0.019051094 0.010136585 -0.012339174 0.0043452396 0.0028343466
-0.033229504 -0.030917622 0.011459855 0.0051983916 -0.013146302 -0.014130685 -0.0030635356 -0.008237927

exp_avg_sq f4 [2, 128]
00000000: ce3d 943a fe74 3239 4338 933a dd01 6c39
00000010: 768d cd39 4d45 1c39 847b 393a 4e3c 663a
00000020: c16b 4639 2756 1e3a 839f bf39 f613 9239
00000030: b57e 1c39 5719 1c39 a20b e439 c3f7 5d39
00000040: 3b27 c938 1c63 cf38 6e65 4939 f12d 0039
00000050: f9b4 d138 2f22 9339 9907 1a39 94eb 8139
00000060: c7fc e938 0ca4 9739 a8ed e739 ebd2 0639
00000070: 1881 2e39 b0fc 103a 8163 0f39 bdb1 ab39
00000080: 3978 9e38 2164 a738 b80b 0539 6604 fc38
00000090: 6591 ab39 8599 9739 5e87 a539 6e72 bb39
000000a0: f19a 2539 b100 ef39 9e29 bb39 8af9 a339
000000b0: 8668 1739 2785 9539 b8ff 1c39 309a 143a
000000c0: 6b04 9f39 11e8 2939 0fa6 8b3a eb26 ac39
000000d0: 9412 673b 2faf 8f39 0c7c f539 b7c9 413a
000000e0: ee13 143a d41f 6839 a9cb 1c39 e63b 5739
000000f0: a5f3 0239 6f24 7239 924f de3a f2f7 0b39
00000100: 0f0f 6539 c67a 8239 fd0a af38 c251 8539
00000110: ef3d a239 4588 2f39 92ae 3439 922a fe39
00000120: 5bf5 1f3a 887a 223a 43ad f038 b3d0 fe39
00000130: d6b9 0339 991b b039 52e1 223b 6218 4139
00000140: 69bb ad39 bca6 b339 815c 6e39 1cde 8839
00000150: 7b00 0139 92d1 ae39 404c bb39 da42 b639
00000160: 71e0 a039 38fc 9a39 6e07 7439 5f17 d638
00000170: 7451 7239 ac1a 043a a045 d139 e0da 113a
00000180: 7d1a 3c39 51bf ee39 2d01 2e39 2df5 1b39
00000190: 63e5 083a 64d4 2739 3d10 553a 13cc d838
000001a0: 7129 f539 7f3e 0739 d340 8239 fef2 3139
000001b0: b29d b339 e9cd 1a39 4eba 8339 b4b5 cc39
000001c0: f748 6339 2923 be39 783e 5539 0208 ce39
000001d0: 6609 8739 dbcf 073a 4c3f 5639 09d6 3038
000001e0: 5c2f 8839 3adc 6639 a67e c039 d38f 5a39
000001f0: acdf d338 4043 8839 283a fe38 75b7 2139
00000200: ce3d 943a fc74 3239 4438 933a dd01 6c39
00000210: 768d cd39 4e45 1c39 867b 393a 4e3c 663a
00000220: bf6b 4639 2456 1e3a 849f bf39 f613 9239
00000230: b67e 1c39 5719 1c39 a30b e439 c4f7 5d39
00000240: 3b27 c938 1d63 cf38 7165 4939 f32d 0039
00000250: fab4 d138 3022 9339 9807 1a39 94eb 8139
00000260: c6fc e938 0ca4 9739 a8ed e739 ead2 0639
00000270: 1981 2e39 b0fc 103a 8063 0f39 bdb1 ab39
00000280: 3978 9e38 2164 a738 b80b 0539 6604 fc38
00000290: 6591 ab39 8599 9739 5d87 a539 6e72 bb39
000002a0: f19a 2539 b100 ef39 9e29 bb39 8af9 a339
000002b0: 8768 1739 2885 9539 b8ff 1c39 309a 143a
000002c0: 6c04 9f39 10e8 2939 0fa6 8b3a eb26 ac39
000002d0: 9112 673b 2faf 8f39 0f7c f539 b7c9 413a
000002e0: ee13 143a d31f 6839 a9cb 1c39 e63b 5739
000002f0: a5f3 0239 7224 7239 924f de3a f2f7 0b39
00000300: 0f0f 6539 c57a 8239 fd0a af38 c451 8539
00000310: ee3d a239 4588 2f39 92ae 3439 922a fe39
00000320: 5af5 1f3a 887a 223a 44ad f038 b3d0 fe39
00000330: d4b9 0339 9a1b b039 53e1 223b 6018 4139
00000340: 69bb ad39 bda6 b339 855c 6e39 1ede 8839
00000350: 7b00 0139 93d1 ae39 404c bb39 da42 b639
00000360: 70e0 a039 38fc 9a39 6e07 7439 5f17 d638
00000370: 7551 7239 ac1a 043a a145 d139 e1da 113a
00000380: 7d1a 3c39 51bf ee39 2c01 2e39 2df5 1b39
00000390: 64e5 083a 65d4 2739 3b10 553a 13cc d838
000003a0: 7229 f539 803e 0739 d440 8239 01f3 3139
000003b0: b19d b339 e9cd 1a39 4eba 8339 b4b5 cc39
000003c0: f648 6339 2923 be39 783e 5539 0308 ce39
000003d0: 6609 8739 dbcf 073a 4b3f 5639 09d6 3038
000003e0: 5c2f 8839 3adc 6639 a87e c039 d68f 5a39
000003f0: a9df d338 4143 8839 293a fe38 75b7 2139
0.0011309923 0.00017018986 0.0011231977 0.00022507408 0.00039206044 0.00014903136 0.0007075595 0.000878279
0.00018922893 0.00060400594 0.00036549204 0.00027862162 0.00014924521 0.00014886759 0.00043496216 0.00021168501
9.591734e-05 9.88899e-05 0.00019206639 0.00012224146 9.9996054e-05 0.00028063494 0.00014689415 0.00024780317
0.00011157389 0.0002892319 0.0004423682 0.00012857809 0.00016642024 0.00055308174 0.00013674611 0.00032748087
7.55642e-05 7.981831e-05 0.00012688234 0.00012017116 0.0003272399 0.00028915345 0.0003157211 0.00035752676
0.00015793346 0.00045586147 0.00035698427 0.00031275704 0.0001443942 0.000285187 0.00014972582 0.00056687277
0.00030330135 0.00016203547 0.0010654348 0.00032835393 0.0035258876 0.00027405607 0.00046822464 0.00073924236
0.00056487217 0.00022137101 0.00014953189 0.00020526312 0.00012488531 0.00023092491 0.001696097 0.0001334844
0.00021844752 0.00024887006 8.346697e-05 0.0002542865 0.00030945192 0.00016740065 0.0001723117 0.00048478373
0.00061019295 0.0006198068 0.00011476364 0.00048602148 0.00012562363 0.00033589898 0.002485354 0.00018414998
0.00033136763 0.00034265767 0.00022731909 0.00026105426 0.00012302578 0.00033344008 0.0003572423 0.00034763553
0.000306848 0.00029561087 0.00023272421 0.000102086684 0.00023109262 0.0005039375 0.0003991546 0.0005563926
0.00017938945 0.0004553744 0.00016594371 0.00014873287 0.00052221696 0.00016005483 0.0008127725 0.000103376944
0.00046760918 0.00012897885 0.0002484383 0.00016970557 0.00034259033 0.00014763292 0.00025125075 0.00039045291
0.00021675589 0.0003626582 0.00020336534 0.00039297348 0.0002575621 0.0005180814 0.0002043221 4.2161006e-05
0.00025975227 0.0002201655 0.00036715454 0.00020843679 0.00010102926 0.00025990047 0.00012122496 0.000154225
0.0011309923 0.00017018983 0.0011231978 0.00022507408 0.00039206044 0.00014903137 0.00070755964 0.000878279
0.0001892289 0.00060400576 0.00036549207 0.00027862162 0.00014924523 0.00014886759 0.0004349622 0.00021168502
9.591734e-05 9.8889905e-05 0.00019206644 0.00012224149 9.999606e-05 0.00028063497 0.00014689413 0.00024780317
0.000111573885 0.0002892319 0.0004423682 0.00012857807 0.00016642026 0.00055308174 0.0001367461 0.00032748087
7.55642e-05 7.981831e-05 0.00012688234 0.00012017116 0.0003272399 0.00028915345 0.00031572106 0.00035752676
0.00015793346 0.00045586147 0.00035698427 0.00031275704 0.00014439422 0.00028518704 0.00014972582 0.00056687277
0.00030330138 0.00016203546 0.0010654348 0.00032835393 0.003525887 0.00027405607 0.00046822472 0.00073924236
0.00056487217 0.000221371 0.00014953189 0.00020526312 0.00012488531 0.00023092495 0.001696097 0.0001334844
0.00021844752 0.00024887003 8.346697e-05 0.00025428657 0.0003094519 0.00016740065 0.0001723117 0.00048478373
0.0006101929 0.0006198068 0.00011476365 0.00048602148 0.0001256236 0.000335899 0.0024853542 0.00018414995
0.00033136763 0.0003426577 0.00022731915 0.00026105432 0.00012302578 0.0003334401 0.0003572423 0.00034763553
0.00030684797 0.00029561087 0.00023272421 0.000102086684 0.00023109264 0.0005039375 0.00039915464 0.00055639265
0.00017938945 0.0004553744 0.0001659437 0.00014873287 0.000522217 0.00016005484 0.00081277237 0.000103376944
0.0004676092 0.00012897886 0.00024843833 0.00016970561 0.0003425903 0.00014763292 0.00025125075 0.00039045291
0.00021675587 0.0003626582 0.00020336534 0.0003929735 0.0002575621 0.0005180814 0.00020432209 4.2161006e-05
0.00025975227 0.0002201655 0.0003671546 0.00020843683 0.00010102924 0.0002599005 0.00012122497 0.000154225

exp_avg f4 [2]
00000000: 40c6 af38 80c7 afb8
8.381577e-05 -8.38181e-05

exp_avg_sq f4 [2]
00000000: dc95 9f38 dd95 9f38
7.609624e-05 7.609625e-05
