src/rxcsfgez/epoch=15-step=95.ckpt (torch, 7111 bytes, 6 tensors)

layers.1.weight f4 [2, 128]
-0.090098016 -0.09044682 -0.03208338 -0.06455403 0.022412583 -0.06596591 0.052316792 0.0054940376
-0.011927625 0.09689725 -0.008272553 0.051598553 -0.04677247 -0.055626065 -0.121514566 0.0071933614
-0.04341028 0.089696825 0.019381482 0.06601673 0.010027511 -0.030215314 0.123705216 -0.095884494
-0.06872935 -0.04295694 -0.025635911 0.014606081 -0.062287267 -0.062207956 -0.06416189 0.020233857
-0.073990725 -0.05457527 -0.09521216 -0.019330733 0.014053566 -0.12505497 -0.0135089755 -0.03237504
0.00021111495 -0.04941617 -0.04400179 -0.020343486 0.03051939 -0.0035530597 -0.04586613 -0.028152067
0.016064165 0.11974103 0.07207334 -0.040514395 0.00028999854 0.10972694 0.018562872 -0.008380333
-0.07428293 0.07247237 0.028444953 -0.0813345 0.06481175 0.02378063 -0.037586488 -0.031171203
-0.054356486 -0.06168144 0.040156525 -0.050195307 -0.0006966293 0.04923401 0.039054003 0.030908447
-0.041120708 -0.033136647 0.08155618 -0.015549213 0.015557774 0.032410182 0.020842388 0.08156074
-0.06514686 -0.10324506 -0.08383534 0.009773053 0.10184389 -0.10886506 0.007048696 -0.057525825
-0.05928076 -0.024407458 -0.012208028 0.0022104378 -0.11748634 0.08910684 -0.028666878 0.07800468
-0.043876443 0.033851087 -0.045538336 -0.07696625 0.016956491 -0.0012058414 0.006337763 0.006291283
0.067987904 -0.031694848 -0.013533847 -0.042941254 0.07038673 -0.052114613 0.08187669 0.08071988
-0.031577054 -0.09267742 -0.042459372 -0.050002255 0.09492943 0.06769465 -0.006683105 0.105647765
-0.014454381 -0.12763868 -0.06459776 -0.02693275 -0.098765664 -0.054153822 0.006381507 -0.020980528
-0.014041726 0.026149532 0.07503584 -0.018108984 0.017012177 -0.033099502 -0.07056478 0.054875918
0.06932511 0.023060894 -0.08354733 -0.010360058 -0.10029101 0.039290875 0.04660606 0.014396289
-0.044266682 -0.023203734 0.06370392 -0.08536636 0.059664503 0.06523273 -0.107180625 0.09583173
0.025734482 0.07520381 0.06640191 -0.07265956 0.061875284 -0.002863516 0.044290718 0.0016386632
-0.060608637 -0.01624158 0.043194726 0.020286124 -0.11141844 -0.04809647 0.014185138 0.016380008
0.013053872 0.0138112325 0.03416305 -0.022565352 -0.066866934 0.014860304 -0.0048459396 0.047677983
-0.07406061 0.026306476 0.032932438 -0.039565288 0.06456157 -0.020245371 0.116255194 0.11076341
0.056438703 0.015367092 0.0371056 0.09873207 -0.08279691 -0.016925085 0.056658726 -0.07041411
-0.061623942 -0.0022829983 -0.006036299 0.03432913 0.052790347 0.011146183 -0.060093466 0.12565295
-0.057220522 0.09193445 0.020737343 0.12329627 0.07360387 0.012168204 0.062442932 -0.08659513
0.050612777 -0.027328968 -0.056021325 -0.064588025 0.05915915 0.057846114 -0.033476457 -0.08678377
0.009681393 -0.024797842 -0.0007071651 0.07952405 -0.012468564 -0.081971146 0.05065928 0.011737772
0.037971977 0.013659603 0.0013228701 0.061170086 0.059535738 -0.03814526 -0.005346388 0.029614752
0.016544817 0.07934854 0.017739462 0.09738105 -0.103198536 0.007060973 -0.0307889 0.026051495
-0.009549467 0.082151845 -0.09395686 -0.034344338 0.0124122 0.06690509 0.015279929 0.034341004
0.011880753 0.033319373 0.066653684 0.04319873 0.07266156 -0.06300221 0.016332703 -0.057815857
00000000: 4f85 b8bd 2f3c b9bd dd69 03bd e734 84bd
00000010: 989a b73c 2319 87bd 224a 563d 5407 b43b
00000020: 166c 43bc 1172 c63d 9a89 07bc 0159 533d
00000030: 7d94 3fbd 28d8 63bd a1dc f8bd 4ab6 eb3b
00000040: face 31bd f8b2 b73d eac5 9e3c c833 873d
00000050: 6e4a 243c 1b86 f7bc 2959 fd3d 175f c4bd
00000060: f9c1 8cbd 9ef3 2fbd 6702 d2bc 584e 6f3c
00000070: ef20 7fbd c5cd 7ebd 4f67 83bd 79c1 a53c
00000080: 7388 97bd 518a 5fbd 98fe c2bd 7c5b 9ebc
00000090: ee40 663c 690e 00be c054 5dbc b19b 04bd
000000a0: bd5e 5d39 9c68 4abd 393b 34bd 62a7 a6bc
000000b0: cd03 fa3c 73da 68bb 20de 3bbd 2a9f e6bc
000000c0: ff98 833c c93a f53d 309b 933d 6cf2 25bd
000000d0: f20a 9839 85b8 e03d 2a11 983c aa4d 09bc
000000e0: a621 98bd 656c 943d 6405 e93c b492 a6bd
000000f0: 06bc 843d 99cf c23c 4af4 19bd c05a ffbc
00000100: e8a4 5ebd ada5 7cbd 2b7b 243d 9899 4dbd
00000110: 009e 36ba 9aa9 493d 17f7 1f3d b633 fd3c
00000120: 306e 28bd 4bba 07bd ed06 a73d 20c2 7ebc
00000130: 09e6 7e3c 8ac0 043d a8bd aa3c 5109 a73d
00000140: b86b 85bd 2572 d3bd ddb1 abbd 281f 203c
00000150: 8893 d03d a5f4 debd bff8 e63b 33a0 6bbd
00000160: 62d0 72bd 26f2 c7bc 2e04 48bc fedc 103b
00000170: ae9c f0bd a67d b63d cdd6 eabc ebc0 9f3d
00000180: c9b7 33bd 70a7 0a3d 6886 3abd 7ba0 9dbd
00000190: 57e8 8a3c 530d 9eba 02ad cf3b 1b27 ce3b
000001a0: 3e3d 8b3d 75d2 01bd 12bd 5dbc 2be3 2fbd
000001b0: eb26 903d 2276 55bd f7ae a73d 7750 a53d
000001c0: f156 01bd a9cd bdbd e1e9 2dbd 2acf 4cbd
000001d0: 5c6a c23d 7ea3 8a3d f3fd dabb db5d d83d
000001e0: 11d2 6cbc b7b3 02be d54b 84bd 12a2 dcbc
000001f0: a745 cabd 66d0 5dbd f61b d13b 5bdf abbc
00000200: 440f 66bc 8b37 d63c 64ac 993d 4b59 94bc
00000210: 1f5d 8b3c 5893 07bd 4484 90bd 92c5 603d
00000220: 53fa 8d3d 33ea bc3c dd1a abbd 3cbd 29bc
00000230: 6065 cdbd 78ef 203d ffe5 3e3d 6ade 6b3c
00000240: fb50 35bd c215 bebc 3377 823d 8fd4 aebd
00000250: c462 743d bd98 853d 8481 dbbd 6d43 c43d
00000260: 1fd1 d23c 7504 9a3d b9fd 873d 89ce 94bd
00000270: f070 7d3d d4a9 3bbb 2f6a 353d 6ac8 d63a
00000280: c340 78bd 100d 85bc f4ec 303d 162f a63c
00000290: 5a2f e4bd ce00 45bd c868 683c 5e2f 863c
000002a0: e8df 553c 8248 623c 8eee 0b3d f9da b8bc
000002b0: 88f1 88bd a278 733c b0ca 9ebb fd49 433d
000002c0: 17ad 97bd ae80 d73c 2ae4 063d 360f 22bd
000002d0: db38 843d 9fd9 a5bc 3417 ee3d edd7 e23d
000002e0: 452c 673d 41c6 7b3c 0bfc 173d 0a34 ca3d
000002f0: 6d91 a9bd 7aa6 8abc fb12 683d 4635 90bd
00000300: 6369 7cbd 5b9e 15bb 25cc c5bb b49c 0c3d
00000310: b13a 583d 7b9e 363c 9124 76bd 2bab 003e
00000320: 1160 6abd 2148 bc3d 5ce1 a93c c182 fc3d
00000330: a0bd 963d 265d 473c 29c4 7f3d ca58 b1bd
00000340: 584f 4f3d 00e1 dfbc 9e76 65bd ba46 84bd
00000350: dd50 723d 0cf0 6c3d 9c1e 09bd b0bb b1bd
00000360: b59e 1e3c d824 cbbc 0c61 39ba 81dd a23d
00000370: f348 4cbc 7de0 a7bd 1b80 4f3d c94f 403c
00000380: 8188 1b3d 87cc 5f3c 2864 ad3a 7c8d 7a3d
00000390: bfdb 733d 343e 1cbd c130 afbb a39a f23c
000003a0: ff88 873c 7d81 a23d 5952 913c b76f c73d
000003b0: c159 d3bd bc5f e73b 0139 fcbc f269 d53c
000003c0: 5e75 1cbc 3a3f a83d 746c c0bd a6ac 0cbd
000003d0: 8a5c 4b3c 8905 893d ab58 7a3c 27a9 0c3d
000003e0: 7da7 423c e579 083d ba81 883d 27f1 303d
000003f0: 95cf 943d 4d07 81bd 29cc 853c 52d0 6cbd

layers.1.bias f4 [2]
0.080781944 0.07101662
00000000: 0171 a53d 2971 913d

exp_avg f4 [2, 128]
-0.008317799 0.0067831133 -0.020293755 -0.010923562 -0.030609444 -0.012674315 0.015819056 0.0560827
0.015862677 -0.019225746 0.0014055007 0.0068869926 -0.0049615637 0.019832727 0.032607965 -0.014826517
-0.0063371668 -0.0065027187 0.037001796 0.0015740402 0.01721343 -0.013615858 -0.02393664 0.0006564521
0.0057937982 -0.014939561 -0.008297241 0.01479406 -0.0032579512 0.00890257 0.014402302 0.055510644
0.002247899 -0.015393337 0.00063865696 -0.009971528 -0.02067392 0.029735198 -0.016407615 0.030556135
0.008634045 0.03221222 0.039335363 -0.026926342 -0.0037030193 -0.0074238107 -0.020202238 0.00019963285
-0.014671623 -0.014782524 -0.040655144 0.01736344 -0.06687516 -0.015274215 0.04289468 0.042407706
0.032797486 0.0015475927 0.020284208 0.030535107 -0.0020728142 -0.018866884 -0.045809742 -0.0063723316
-0.008785211 -0.018555937 -0.024138708 -0.009592055 0.047887683 -0.011152518 -0.011592683 0.037432853
-0.0016473412 0.033991396 -0.0071757315 0.050450586 0.00074499444 0.028050955 0.020053694 -0.025950948
-0.002110092 0.019458078 0.007684948 -0.0055119805 -0.01694752 0.022972506 0.018660555 -0.023100015
0.0021409285 0.0017263925 -0.021503093 0.0064775744 0.03123992 -0.0019220666 0.030539082 -0.05640239
-0.0030029127 0.021018717 0.0073780636 0.023619905 0.0003213037 0.021793276 0.007994113 -0.02334337
-0.050611917 -0.009163579 -0.018854685 -0.0049078953 0.009052939 0.003474878 -0.033362575 -0.02749598
-0.010719835 0.012917414 -0.015624571 -0.00887209 -0.022017749 0.0024068032 -0.01476942 -0.0043346104
0.028739294 0.02683969 -0.019528687 -0.0063465214 -0.0020327615 0.013007505 0.009426231 0.011767163
0.008317796 -0.0067831133 0.020293752 0.010923562 0.030609444 0.012674314 -0.015819056 -0.056082703
-0.01586268 0.019225748 -0.0014054999 -0.0068869907 0.004961565 -0.019832728 -0.032607965 0.014826517
0.0063371654 0.006502718 -0.037001796 -0.00157404 -0.01721343 0.013615858 0.023936639 -0.0006564549
-0.0057937996 0.0149395615 0.008297238 -0.014794058 0.0032579496 -0.008902567 -0.014402302 -0.055510644
-0.0022478977 0.015393337 -0.0006386563 0.009971526 0.02067392 -0.029735202 0.016407615 -0.030556139
-0.008634047 -0.032212216 -0.039335363 0.026926342 0.0037030217 0.00742381 0.02020224 -0.00019963545
0.014671625 0.014782523 0.040655144 -0.017363442 0.06687518 0.015274215 -0.04289468 -0.042407706
-0.032797482 -0.0015475907 -0.020284208 -0.030535107 0.0020728125 0.018866884 0.04580974 0.006372331
0.00878521 0.01855594 0.024138708 0.009592058 -0.047887683 0.011152514 0.011592685 -0.03743285
0.0016473375 -0.033991393 0.007175732 -0.050450593 -0.000744995 -0.028050955 -0.0200537 0.025950946
0.0021100924 -0.019458074 -0.00768495 0.0055119805 0.016947523 -0.022972504 -0.018660555 0.023100013
-0.0021409285 -0.0017263908 0.021503095 -0.006477577 -0.031239923 0.0019220648 -0.030539079 0.05640239
0.0030029127 -0.021018717 -0.0073780636 -0.023619905 -0.0003213022 -0.021793274 -0.007994112 0.02334337
0.05061191 0.009163581 0.018854685 0.004907894 -0.009052938 -0.003474876 0.033362575 0.027495977
0.010719833 -0.012917413 0.015624575 0.008872091 0.022017749 -0.0024068062 0.014769421 0.004334612
-0.028739296 -0.02683969 0.019528687 0.00634652 0.0020327629 -0.013007504 -0.009426232 -0.011767161
00000000: 6147 08bc e144 de3b 173f a6bc bdf8 32bc
00000010: a8c0 fabc eea7 4fbc f796 813c f9b6 653d
00000020: 72f2 813c 507f 9dbc c738 b83a 48ac e13b
00000030: 9d94 a2bb 3e78 a23c ee8f 053d ebea 72bc
00000040: 02a8 cfbb c214 d5bb 328f 173d 0650 ce3a
00000050: 2e03 8d3c 0c15 5fbc c616 c4bc c115 2c3a
00000060: e7d9 bd3b 0fc5 74bc 27f1 07bc c962 723c
00000070: 5a83 55bb 16dc 113c a2f7 6b3c 215f 633d
00000080: 7d51 133b 5634 7cbc 8b6b 273a 9f5f 23bc
00000090: 5a5c a9bc 3b97 f33c 4369 86bc dc50 fa3c
000000a0: cf75 0d3c f6f0 033d 1e1e 213d a294 dcbc
000000b0: 5bae 72bb 7043 f3bb 2a7f a5bc 8954 5139
000000c0: 3f61 70bc 6632 72bc 0286 26bd c63d 8e3c
000000d0: d8f5 88bd b340 7abc 55b2 2f3d b4b3 2d3d
000000e0: a856 063d 98d8 ca3a 112b a63c c324 fa3c
000000f0: 0dd8 07bb b98e 9abc ffa2 3bbd fece d0bb
00000100: d8ef 0fbc 9f02 98bc 8abe c5bc ff27 1dbc
00000110: e025 443d 0db9 36bc 3def 3dbc 3153 193d
00000120: 99eb d7ba 903a 0b3d 6622 ebbb 46a5 4e3d
00000130: bb4b 433a 1ecb e53c a547 a43c 1597 d4bc
00000140: 7849 0abb 8c66 9f3c 04d2 fb3b d89d b4bb
00000150: 87d5 8abc d630 bc3c 05de 983c 3e3c bdbc
00000160: d24e 0c3b 1f48 e23a 4127 b0bc d541 d43b
00000170: dcea ff3c daed fbba 192d fa3c 3106 67bd
00000180: 84cc 44bb 722f ac3c afc3 f13b 887e c13c
00000190: a774 a839 d087 b23c bdf9 023c 983a bfbc
000001a0: 714e 4fbd d622 16bc 2475 9abc 69d2 a0bb
000001b0: c752 143c c7ba 633b 32a7 08bd 403f e1bc
000001c0: 3fa2 2fbc 90a3 533c 33fe 7fbc 3e5c 11bc
000001d0: 915e b4bc 75bb 1d3b 70fb 71bc 5909 8ebb
000001e0: ab6e eb3c e9de db3c a0fa 9fbc 7bf6 cfbb
000001f0: 1438 05bb 6e1d 553c 7a70 1a3c 0fcb 403c
00000200: 5d47 083c e144 debb 153f a63c bdf8 323c
00000210: a8c0 fa3c eda7 4f3c f796 81bc fab6 65bd
00000220: 73f2 81bc 517f 9d3c c038 b8ba 44ac e1bb
00000230: a094 a23b 3f78 a2bc ee8f 05bd ebea 723c
00000240: ffa7 cf3b c114 d53b 328f 17bd 0550 ceba
00000250: 2e03 8dbc 0c15 5f3c c516 c43c f115 2cba
00000260: ead9 bdbb 10c5 743c 23f1 073c c762 72bc
00000270: 5383 553b 13dc 11bc a2f7 6bbc 215f 63bd
00000280: 7751 13bb 5634 7c3c 806b 27ba 9d5f 233c
00000290: 5a5c a93c 3d97 f3bc 4369 863c de50 fabc
000002a0: d175 0dbc f5f0 03bd 1e1e 21bd a294 dc3c
000002b0: 65ae 723b 6f43 f33b 2b7f a53c 3c55 51b9
000002c0: 4161 703c 6532 723c 0286 263d c73d 8ebc
000002d0: dbf5 883d b340 7a3c 55b2 2fbd b4b3 2dbd
000002e0: a756 06bd 87d8 caba 112b a6bc c324 fabc
000002f0: 06d8 073b b98e 9a3c fea2 3b3d fdce d03b
00000300: d7ef 0f3c a002 983c 8abe c53c 0228 1d3c
00000310: e025 44bd 09b9 363c 3fef 3d3c 3053 19bd
00000320: 79eb d73a 8f3a 0bbd 6722 eb3b 48a5 4ebd
00000330: c54b 43ba 1ecb e5bc a847 a4bc 1497 d43c
00000340: 7a49 0a3b 8a66 9fbc 08d2 fbbb d89d b43b
00000350: 88d5 8a3c d530 bcbc 05de 98bc 3d3c bd3c
00000360: d24e 0cbb 1048 e2ba 4227 b03c db41 d4bb
00000370: deea ffbc cbed fb3a 172d fabc 3106 673d
00000380: 84cc 443b 722f acbc afc3 f1bb 887e c1bc
00000390: 7474 a8b9 cf87 b2bc bcf9 02bc 983a bf3c
000003a0: 6f4e 4f3d d822 163c 2475 9a3c 66d2 a03b
000003b0: c652 14bc bfba 63bb 32a7 083d 3e3f e13c
000003c0: 3da2 2f3c 8fa3 53bc 38fe 7f3c 3f5c 113c
000003d0: 915e b43c 82bb 1dbb 71fb 713c 5c09 8e3b
000003e0: ac6e ebbc e9de dbbc a0fa 9f3c 78f6 cf3b
000003f0: 1a38 053b 6d1d 55bc 7c70 1abc 0dcb 40bc

exp_avg_sq f4 [2, 128]
0.0011458027 0.00015040766 0.0008832628 0.00016523455 0.0003338392 0.00010451737 0.0006178871 0.0009826097
0.0002099686 0.0005587701 0.0003204415 0.00021653807 0.000109423454 0.00012687751 0.00039281521 0.00020071743
8.4560146e-05 7.9808466e-05 0.00023524894 0.00010737696 0.00012510245 0.0002921578 0.00012479055 0.00020767917
0.00010484787 0.00026789118 0.00038069405 0.00012595033 0.00020115162 0.000540029 9.8598495e-05 0.00053802575
6.5096145e-05 0.0001325695 0.00013724752 8.553057e-05 0.00028077574 0.00025711683 0.00029705206 0.00041587875
0.0001888716 0.00035422837 0.00035129374 0.00027113062 0.0001481934 0.00019944733 0.00013493196 0.00051923457
0.00025145375 0.00015211357 0.0010873298 0.00029495056 0.0035914048 0.00015445444 0.0007197018 0.00053041324
0.00041215136 0.00017737517 0.00016787833 0.00021470131 0.00010012751 0.00016832179 0.0018094848 0.00013153894
0.00015725361 0.00029015797 0.00018254796 0.00015097158 0.00033657294 0.00010396923 0.00014815816 0.0005095994
0.0005452542 0.00043104723 9.031425e-05 0.000496862 0.00014499488 0.00041870147 0.0021125877 0.00019116163
0.00024770934 0.00021739067 0.00025646377 0.00022186134 0.00010188583 0.0002260736 0.00026587755 0.00035642445
0.00023772806 0.00026917862 0.00016335373 0.00010186773 0.00022289094 0.00043056946 0.0002601908 0.00055357744
0.00019817578 0.00037877136 0.0001199558 0.00015554336 0.0005045739 0.00016784212 0.0009269895 0.00018199396
0.0005040803 0.00017425026 0.0002391734 0.00012698761 0.00024998927 0.00015740297 0.00026028702 0.00029024621
0.00013089599 0.00019587131 0.00017303815 0.00038966216 0.00022812013 0.0005040554 0.00018433467 5.3147025e-05
0.0002056774 0.00023448745 0.00037616573 0.0001777689 8.5190484e-05 0.00025205294 0.00010534616 0.00012950967
0.0011458027 0.00015040768 0.0008832628 0.00016523458 0.00033383924 0.000104517356 0.0006178871 0.0009826098
0.00020996858 0.00055877015 0.00032044153 0.0002165381 0.000109423454 0.00012687752 0.00039281516 0.00020071743
8.4560146e-05 7.980847e-05 0.00023524894 0.00010737697 0.00012510245 0.00029215784 0.00012479056 0.0002076792
0.000104847895 0.00026789116 0.00038069405 0.00012595035 0.00020115162 0.000540029 9.859849e-05 0.00053802575
6.509614e-05 0.00013256949 0.00013724751 8.553057e-05 0.0002807757 0.00025711683 0.0002970521 0.00041587875
0.0001888716 0.0003542284 0.0003512937 0.00027113062 0.00014819345 0.00019944734 0.00013493196 0.0005192345
0.00025145375 0.00015211356 0.0010873298 0.00029495053 0.0035914048 0.00015445444 0.00071970164 0.00053041324
0.0004121514 0.00017737514 0.00016787832 0.00021470131 0.00010012753 0.00016832179 0.0018094849 0.00013153894
0.00015725363 0.00029015797 0.00018254796 0.00015097157 0.00033657294 0.000103969236 0.00014815816 0.00050959934
0.00054525415 0.0004310472 9.031426e-05 0.000496862 0.00014499488 0.00041870144 0.0021125881 0.00019116163
0.00024770934 0.00021739064 0.00025646377 0.00022186138 0.00010188583 0.0002260736 0.00026587758 0.00035642445
0.00023772808 0.0002691786 0.00016335372 0.000101867736 0.00022289093 0.00043056946 0.00026019078 0.00055357744
0.00019817575 0.0003787714 0.00011995579 0.00015554337 0.0005045739 0.00016784212 0.0009269893 0.00018199395
0.0005040804 0.00017425026 0.0002391734 0.00012698762 0.0002499893 0.00015740296 0.00026028702 0.0002902462
0.00013089599 0.00019587131 0.00017303815 0.00038966216 0.0002281201 0.0005040554 0.0001843347 5.3147025e-05
0.00020567738 0.00023448747 0.00037616573 0.0001777689 8.5190484e-05 0.00025205294 0.000105346146 0.00012950967
00000000: c22e 963a c0b6 1d39 c38a 673a d042 2d39
00000010: 2407 af39 5630 db38 b4f9 213a e9ca 803a
00000020: 042b 5c39 6d7a 123a ee00 a839 7f0e 6339
00000030: 457a e538 6c0a 0539 c4f2 cd39 ad77 5239
00000040: e255 b138 d85e a738 28ad 7639 912f e138
00000050: ef2d 0339 c22c 9939 35da 0239 74c4 5939
00000060: c6e1 db38 bf73 8c39 e497 c739 8911 0439
00000070: 3aec 5239 bc90 0d3a aac6 ce38 4c0a 0d3a
00000080: 3a84 8838 5b02 0b39 1aea 0f39 e05e b338
00000090: 1535 9339 a3cd 8639 a7bd 9b39 4d0a da39
000000a0: d60b 4639 bab7 b939 d92d b839 8926 8e39
000000b0: 5d64 1b39 bc22 5139 867c 0d39 3e1d 083a
000000c0: 8dd5 8339 ad80 1f39 bc84 8e3a 98a3 9a39
000000d0: c65d 6b3b 0cf5 2139 5faa 3c3a 6e0b 0b3a
000000e0: 0516 d839 c9fd 3939 7f08 3039 7221 6139
000000f0: 8cfb d138 897f 3039 3c2c ed3a b7ed 0939
00000100: 72e4 2439 5820 9839 586a 3f39 204e 1e39
00000110: 0e76 b039 0e0a da38 e75a 1b39 a396 053a
00000120: 64ef 0e3a 2efe e139 1867 bd38 d83f 023a
00000130: c409 1839 2985 db39 5773 0a3b 8f72 4839
00000140: fcde 8139 5df3 6339 fc75 8639 73a3 6839
00000150: 8aab d538 2b0e 6d39 7b65 8b39 7bde ba39
00000160: a446 7939 8b20 8d39 ef49 2b39 d2a1 d538
00000170: d5b7 6939 0ebe e139 386a 8839 f41d 113a
00000180: 68cd 4f39 d595 c639 c890 fb38 5a19 2339
00000190: 6245 043a c7fe 2f39 3601 733a a2d5 3e39
000001a0: 4224 043a f3b6 3639 9fca 7a39 fa27 0539
000001b0: fe10 8339 8a0c 2539 2277 8839 302c 9839
000001c0: 2041 0939 ce62 4d39 9371 3539 924b cc39
000001d0: 8833 6f39 9622 043a f649 4139 2fea 5e38
000001e0: 1bab 5739 bfe0 7539 1c38 c539 7a67 3a39
000001f0: 4ba8 b238 f925 8439 4aed dc38 fdcc 0739
00000200: c22e 963a c1b6 1d39 c38a 673a d242 2d39
00000210: 2507 af39 5430 db38 b4f9 213a eaca 803a
00000220: 032b 5c39 6e7a 123a ef00 a839 810e 6339
00000230: 457a e538 6d0a 0539 c2f2 cd39 ad77 5239
00000240: e255 b138 d95e a738 28ad 7639 922f e138
00000250: ef2d 0339 c32c 9939 36da 0239 76c4 5939
00000260: c9e1 db38 be73 8c39 e497 c739 8a11 0439
00000270: 3aec 5239 bc90 0d3a a9c6 ce38 4c0a 0d3a
00000280: 3984 8838 5a02 0b39 19ea 0f39 e05e b338
00000290: 1435 9339 a3cd 8639 a8bd 9b39 4d0a da39
000002a0: d60b 4639 bbb7 b939 d82d b839 8926 8e39
000002b0: 6064 1b39 bd22 5139 867c 0d39 3d1d 083a
000002c0: 8dd5 8339 ac80 1f39 bc84 8e3a 97a3 9a39
000002d0: c65d 6b3b 0cf5 2139 5caa 3c3a 6e0b 0b3a
000002e0: 0616 d839 c7fd 3939 7e08 3039 7221 6139
000002f0: 8ffb d138 897f 3039 3d2c ed3a b7ed 0939
00000300: 73e4 2439 5820 9839 586a 3f39 1f4e 1e39
00000310: 0e76 b039 0f0a da38 e75a 1b39 a296 053a
00000320: 63ef 0e3a 2dfe e139 1967 bd38 d83f 023a
00000330: c409 1839 2885 db39 5973 0a3b 8f72 4839
00000340: fcde 8139 5bf3 6339 fc75 8639 76a3 6839
00000350: 8aab d538 2b0e 6d39 7c65 8b39 7bde ba39
00000360: a546 7939 8a20 8d39 ee49 2b39 d3a1 d538
00000370: d4b7 6939 0ebe e139 376a 8839 f41d 113a
00000380: 66cd 4f39 d695 c639 c690 fb38 5b19 2339
00000390: 6245 043a c7fe 2f39 3301 733a a1d5 3e39
000003a0: 4324 043a f3b6 3639 9fca 7a39 fb27 0539
000003b0: ff10 8339 890c 2539 2277 8839 2f2c 9839
000003c0: 2041 0939 ce62 4d39 9371 3539 924b cc39
000003d0: 8633 6f39 9622 043a f849 4139 2fea 5e38
000003e0: 1aab 5739 c0e0 7539 1c38 c539 7a67 3a39
000003f0: 4ba8 b238 f925 8439 48ed dc38 fdcc 0739

exp_avg f4 [2]
-0.0009752917 0.00097528845
00000000: b8aa 7fba 80aa 7f3a

exp_avg_sq f4 [2]
6.5122236e-05 6.512223e-05
00000000: 3c92 8838 3b92 8838
